…
Tanguay_ZF_120hpf_PIG_up 0: 95.46%, 1: 4.54%
Tanguay_ZF_120hpf_SNOU_up 0: 88.93%, 1: 11.07%
Tanguay_ZF_120hpf_SOMI_up 0: 95.90%, 1: 4.10%
Tanguay_ZF_120hpf_SWIM_up 0: 96.23%, 1: 3.77%
Tanguay_ZF_120hpf_TRUN_up 0: 94.13%, 1: 5.87%
Tanguay_ZF_120hpf_TR_up 0: 92.03%, 1: 7.97%
Tanguay_ZF_120hpf_YSE_up 0: 86.82%, 1: 13.18%
Total size = 2,851 | train size = 2,851 | val size = 160 | test size = 155
Building model 0
MoleculeModel(
  (sigmoid): Sigmoid()
  (encoder): MPN(
    (encoder): ModuleList(
      (0): MPNEncoder(
        (dropout_layer): Dropout(p=0.0, inplace=False)
        (act_func): Beaf()
        (W_i): Linear(in_features=147, out_features=300, bias=False)
        (W_h): Linear(in_features=300, out_features=300, bias=False)
        (W_o): Linear(in_features=433, out_features=300, bias=True)
      )
    )
  )
  (MolFFN): MolFFN(
    (net): Sequential(
      (0): Linear(in_features=300, out_features=300, bias=True)
      (1): GELU(approximate='none')
      (2): Dropout(p=0, inplace=False)
      (3): Linear(in_features=300, out_features=300, bias=True)
      (4): Dropout(p=0, inplace=False)
    )
  )
  (ffn): Sequential(
    (0): Dropout(p=0.0, inplace=False)
    (1): Linear(in_features=300, out_features=300, bias=True)
    (2): ReLU()
    (3): Dropout(p=0.0, inplace=False)
    (4): Linear(in_features=300, out_features=617, bias=True)
  )
  (norm): BatchNorm1d(300, eps=1e-05, momentum=0.1, affine=True, track_running_stats=True)
  (pos_drop): Dropout(p=0.0, inplace=False)
  (blocks): Sequential(
    (0): Block(
      (norm1): LayerNorm((300,), eps=1e-05, elementwise_affine=True)
      (attn): Attention(
        (qkv): Linear(in_features=300, out_features=900, bias=False)
        (attn_drop): Dropout(p=0, inplace=False)
        (proj): Linear(in_features=300, out_features=300, bias=True)
        (proj_drop): Dropout(p=0.0, inplace=False)
      )
      (drop_path): Identity()
      (norm2): LayerNorm((300,), eps=1e-05, elementwise_affine=True)
      (mlp): Mlp(
        (fc1): Linear(in_features=300, out_features=1200, bias=True)
        (act): GELU(approximate='none')
        (fc2): Linear(in_features=1200, out_features=300, bias=True)
        (drop): Dropout(p=0.0, inplace=False)
      )
    )
  )
  (ln): LayerNorm((300,), eps=1e-05, elementwise_affine=True)
)
Number of parameters = 1,805,417
Epoch 0
Loss = 6.2188e-01, PNorm = 65.2086, GNorm = 0.3278, lr_0 = 1.8684e-04
Loss = 4.8404e-01, PNorm = 65.2264, GNorm = 0.2924, lr_0 = 2.6579e-04
Loss = 3.3929e-01, PNorm = 65.2601, GNorm = 0.1626, lr_0 = 3.4474e-04
Loss = 2.6807e-01, PNorm = 65.2944, GNorm = 0.1444, lr_0 = 4.2368e-04
Loss = 2.5815e-01, PNorm = 65.3159, GNorm = 0.1975, lr_0 = 5.0263e-04
…
