…
 'target_weights': None,
 'task_names': ['Label'],
 'test': False,
 'test_fold_index': None,
 'train_data_size': None,
 'undirected': False,
 'use_input_features': False,
 'val_fold_index': None,
 'warmup_epochs': 2.0}
Loading data
Number of tasks = 1
Splitting data with seed 0
Class sizes
Label 0: 53.15%, 1: 46.85%
Total size = 2,600 | train size = 2,600 | val size = 172 | test size = 204
Building model 0
MoleculeModel(
  (sigmoid): Sigmoid()
  (encoder): MPN(
    (encoder): ModuleList(
      (0): MPNEncoder(
        (dropout_layer): Dropout(p=0.0, inplace=False)
        (act_func): Beaf()
        (W_i): Linear(in_features=147, out_features=300, bias=False)
        (W_h): Linear(in_features=300, out_features=300, bias=False)
        (W_o): Linear(in_features=433, out_features=300, bias=True)
      )
    )
  )
  (MolFFN): MolFFN(
    (net): Sequential(
      (0): Linear(in_features=300, out_features=300, bias=True)
      (1): GELU(approximate='none')
      (2): Dropout(p=0, inplace=False)
      (3): Linear(in_features=300, out_features=300, bias=True)
      (4): Dropout(p=0, inplace=False)
    )
  )
  (ffn): Sequential(
    (0): Dropout(p=0.0, inplace=False)
    (1): Linear(in_features=300, out_features=300, bias=True)
    (2): ReLU()
    (3): Dropout(p=0.0, inplace=False)
    (4): Linear(in_features=300, out_features=1, bias=True)
  )
  (norm): BatchNorm1d(300, eps=1e-05, momentum=0.1, affine=True, track_running_stats=True)
  (pos_drop): Dropout(p=0.0, inplace=False)
  (blocks): Sequential(
    (0): Block(
      (norm1): LayerNorm((300,), eps=1e-05, elementwise_affine=True)
      (attn): Attention(
        (qkv): Linear(in_features=300, out_features=900, bias=False)
        (attn_drop): Dropout(p=0, inplace=False)
        (proj): Linear(in_features=300, out_features=300, bias=True)
        (proj_drop): Dropout(p=0.0, inplace=False)
      )
      (drop_path): Identity()
      (norm2): LayerNorm((300,), eps=1e-05, elementwise_affine=True)
      (mlp): Mlp(
        (fc1): Linear(in_features=300, out_features=1200, bias=True)
        (act): GELU(approximate='none')
        (fc2): Linear(in_features=1200, out_features=300, bias=True)
        (drop): Dropout(p=0.0, inplace=False)
      )
    )
  )
  (ln): LayerNorm((300,), eps=1e-05, elementwise_affine=True)
)
Number of parameters = 1,620,001
Epoch 0
Loss = 7.5062e-01, PNorm = 62.0599, GNorm = 2.9636, lr_0 = 1.9519e-04
Loss = 6.6407e-01, PNorm = 62.0625, GNorm = 3.6647, lr_0 = 2.8173e-04
Loss = 6.2068e-01, PNorm = 62.0662, GNorm = 2.3530, lr_0 = 3.6827e-04
Loss = 6.6343e-01, PNorm = 62.0685, GNorm = 4.2718, lr_0 = 4.5481e-04
Loss = 6.8305e-01, PNorm = 62.0715, GNorm = 5.2068, lr_0 = 5.4135e-04
…
